init/Acrobot_policy.pth (torch_old, 2121 bytes, 6 tensors)

module._layers.0.linear.weight f4 [8, 6]
0.572665 0.59084463 -0.5519476 -0.31785932 -0.12092966 0.19185185 -0.33031383 0.18022448
-0.39037022 0.51623094 -0.45732743 0.17672408 0.12734526 -0.52432185 0.0009893775 0.52916586
0.17367011 0.028330624 -0.061470807 -0.5270954 -0.3241591 -0.18304008 -0.19330972 -0.03822118
-0.26512113 0.35691917 -0.6203105 0.3227467 -0.03490889 -0.62945056 -0.03973937 0.28550506
-0.45255822 -0.04553038 -0.3637879 0.36297548 0.36749744 0.13110918 0.44586706 0.5804515
0.01784724 -0.6544589 0.11773968 0.27444696 -0.60435355 0.15780729 -0.19890273 -0.17511365
00000000: 2c9a 123f 9841 173f 704c 0dbf 75be a2be
00000010: f8a9 f7bd d074 443e e51e a9be c48c 383e
00000020: 9bde c7be b627 043f d226 eabe 28f7 343e
00000030: cc66 023e f539 06bf 00ae 813a 6a77 073f
00000040: 94d6 313e a015 e83c d0c8 7bbd b9ef 06bf
00000050: 2ef8 a5be dc6e 3bbe fcf2 45be d08d 1cbd
00000060: f5bd 87be 1cbe b63e abcc 1ebf 0e3f a53e
00000070: a0fc 0ebd ac23 21bf c0c5 22bd b82d 923e
00000080: b6b5 e7be 107e 3abd 6842 babe ecd7 b93e
00000090: a028 bc3e 7c41 063e b048 e43e 7898 143f
000000a0: 6034 923c 9e8a 27bf 8021 f13d 5084 8c3e
000000b0: eab6 1abf 3c98 213e 28ad 4bbe fe50 33be

module._layers.0.linear.bias f4 [8]
0.0 0.0 0.0 0.0 0.0 0.0 0.0 0.0
00000000: 0000 0000 0000 0000 0000 0000 0000 0000
00000010: 0000 0000 0000 0000 0000 0000 0000 0000

module._layers.1.linear.weight f4 [8, 8]
-0.21514645 -0.11752224 -0.28134498 0.36993814 -0.3059162 0.112805605 -0.080198646 0.16687453
0.28856105 0.41880065 -0.1597512 0.27964646 0.34420562 0.07984781 0.05063808 -0.32251066
-0.4943897 -0.26898614 0.19838363 -0.14840451 0.42542 0.057520807 -0.49424744 0.1927337
-0.046332538 0.14369237 -0.36979812 0.24576521 -0.5046372 0.3916188 -0.4833354 -0.02675116
-0.58310026 -0.57203436 0.21348363 0.21962917 -0.42504525 0.39081973 -0.13159001 0.36790997
0.28499764 0.47333413 -0.08123624 -0.41281688 0.057119668 -0.11158991 0.1283921 0.30917734
-0.02180773 -0.4648913 -0.60718244 0.08123809 -0.36039793 -0.17479229 -0.5711951 -0.0682109
0.06771839 -0.5970133 0.5992364 -0.04908967 0.13317692 -0.053462327 0.35512275 -0.5455625
00000000: 5a4f 5cbe 80af f0bd 730c 90be 8868 bd3e
00000010: 0ca1 9cbe a006 e73d 303f a4bd 28e1 2a3e
00000020: 46be 933e 0a6d d63e d295 23be d22d 8f3e
00000030: b83b b03e 4087 a33d e069 4f3d 1e20 a5be
00000040: a620 fdbe 8db8 89be 1425 4b3e 5af7 17be
00000050: a6d0 d93e f09a 6b3d 000e fdbe fc5b 453e
00000060: 30c7 3dbd 1824 133e 2e56 bdbe e0a9 7b3e
00000070: e72f 01bf 4282 c83e bd77 f7be 4025 dbbc
00000080: 0f46 15bf d870 12bf 749b 5a3e 78e6 603e
00000090: 889f d9be 8619 c83e 88bf 06be b25e bc3e
000000a0: 36eb 913e da58 f23e 305f a6bd bc5c d3be
000000b0: 50f6 693d 4089 e4bd 3879 033e 7e4c 9e3e
000000c0: 20a6 b2bc 3c06 eebe 4f70 1bbf 2860 a63d
000000d0: 1486 b8be c0fc 32be d839 12bf 28b2 8bbd
000000e0: f0af 8a3d ddd5 18bf 8f67 193f 4012 49bd
000000f0: 885f 083e 50fb 5abd a6d2 b53e fca9 0bbf

module._layers.1.linear.bias f4 [8]
0.0 0.0 0.0 0.0 0.0 0.0 0.0 0.0
00000000: 0000 0000 0000 0000 0000 0000 0000 0000
00000010: 0000 0000 0000 0000 0000 0000 0000 0000

module._output_layers.0.linear.weight f4 [3, 8]
-0.7240014 0.5693137 0.39287037 0.26360506 -0.06542677 0.2684012 0.47145408 0.4407733
0.17390662 0.42393118 0.3976645 -0.62730503 -0.3923624 0.72885305 0.39763695 0.64806885
0.63287455 0.03662032 0.7335698 0.11783552 -0.4334863 -0.12190306 -0.18351978 -0.56154275
00000000: 2858 39bf 8bbe 113f 4e26 c93e 3ef7 863e
00000010: 78fe 85bd e26b 893e 6e62 f13e 0aad e13e
00000020: 9414 323e 820d d93e ae9a cb3e 1097 20bf
00000030: b9e3 c8be 1d96 3a3f 1297 cb3e d7e7 253f
00000040: 1104 223f 30ff 153d 3bcb 3b3f c053 f13d
00000050: ebf1 ddbe 50a8 f9bd 9cec 3bbe 44c1 0fbf

module._output_layers.0.linear.bias f4 [3]
0.0 0.0 0.0
00000000: 0000 0000 0000 0000 0000 0000
