init/HalfCheetah_Policy.pth (torch, 26423 bytes, 6 tensors)

_module._mean_module._layers.0.linear.weight f4 [64, 17]
000000 c3 a4 21 3e f8 05 37 3e 7c 0b 60 3e 9b 5e 94 3d
       0.15785508 0.1787337 0.21879381 0.07244607
000010 c4 58 89 be f6 39 46 be 4e 1c eb 3d d4 59 19 be
       -0.26825535 -0.19358048 0.11480008 -0.14975673
000020 f9 58 2e 3e 2b 89 85 3e 37 41 47 be 94 c1 24 be
       0.17026128 0.26081213 -0.19458471 -0.16089469
000030 35 bc 7b 3d 8e c1 70 3e 59 6e 2a 3e e3 1c 85 be
       0.061458785 0.23511335 0.16643657 -0.259986
000040 51 be 2b be 7e 1a 52 be bb e5 07 3e f6 f7 5e be
       -0.16771819 -0.20517918 0.13271229 -0.21774277
000050 5a a5 b8 3d c9 55 c5 3d 82 6f 72 bd ec cd 6f 3e
       0.09015913 0.09635503 -0.059188373 0.23418397
000060 0e 0c 26 3e c2 3e c9 bc c5 c9 db 3d 04 07 58 bd
       0.16215536 -0.024566058 0.10731844 -0.052741066
000070 ae 04 ef 3d a5 38 a1 3d a1 e9 86 3e 2e 45 7a be
       0.116708145 0.07872132 0.2635012 -0.24440452
000080 b1 3f 4d be d2 b6 1a be 18 10 82 be f2 23 2a bd
       -0.20043828 -0.15108803 -0.25402904 -0.041538186
000090 05 f6 84 3e 31 b6 e7 bd 08 ea fb bd 8b 99 de 3d
       0.25968948 -0.11314047 -0.12300497 0.1086913
0000a0 04 12 c5 bd 6a de 1a be 61 ff 3e be f0 e8 43 3e
       -0.09622577 -0.15123907 -0.18652107 0.19131827
0000b0 22 df 09 be 8a 58 34 be 70 4d 7d 3e 45 3e c7 bd
       -0.13464025 -0.176119 0.24736571 -0.09728674
0000c0 da a8 82 3e 69 d8 4d be 4f ad 22 3e d6 d3 b7 bd
       0.2551945 -0.20102085 0.15886424 -0.089759514
0000d0 dd 17 e5 3b 9d ad fb bc 8e a8 22 3e 0c 8a b1 3d
       0.00699137 -0.030722434 0.15884611 0.086689085
0000e0 70 1a 02 be 06 4e 7d bc a3 98 2c be 1c 03 89 be
       -0.12705398 -0.015460497 -0.16855101 -0.26760185
0000f0 af 03 76 bd 47 51 67 be 4c d1 45 3c f4 8d 39 3e
       -0.060062107 -0.22589599 0.012073826 0.18120557
000100 27 07 70 3e 54 9d 7f 3e ec 02 75 3e 61 ff f2 3c
       0.23440228 0.2496236 0.23926896 0.02966279
000110 de 80 72 3e f7 39 32 3d 17 fb 4b be c9 09 9f 3c
       0.23681971 0.04351231 -0.19920002 0.019413846
000120 c1 b8 5a bc 4c b4 5a be 9c f2 79 3e d5 53 6e 3e
       -0.013349713 -0.2135784 0.24408954 0.23274167
000130 49 b6 51 3d ba 65 69 3e d9 2b c7 bd 1a d8 e0 bd
       0.05119923 0.22792712 -0.0972516 -0.10978718
000140 35 04 32 be 0e 7f 84 be 99 b5 9d 3d 9a 61 94 b9
       -0.17384417 -0.25878185 0.07700653 -0.0002830148
000150 0e fb 98 3c 40 34 f9 bd 89 33 26 bd 2a c4 89 3e
       0.0186744 -0.12168169 -0.04057649 0.26907474
000160 fc 31 3a bc c1 25 61 3d 0f 48 c5 bd fd a8 d2 bd
       -0.011364456 0.054967646 -0.09632885 -0.10286138
000170 53 da f1 bc a1 33 86 3e 7d 0c 6f 3e af c2 39 3e
       -0.02952305 0.26211265 0.23344608 0.18140672
000180 55 2b ba bd 28 a9 a8 bd 6b ab 88 3e 67 b0 8a 3c
       -0.09090296 -0.08235389 0.26693282 0.016929818
000190 ca 2d ee 3c fa cf 79 3e 93 b5 7d be a9 1a 35 be
       0.029074568 0.24395743 -0.24776296 -0.17685951
0001a0 e3 c9 80 be 5b f3 74 3e a1 aa 00 bd f4 62 fe 3d
       -0.25154027 0.23920958 -0.031412724 0.124212176
0001b0 9c 12 21 3d 3f 33 14 be ff 4b 87 3e f0 ba ac bd
       0.039324388 -0.14472674 0.26425168 -0.08434093
0001c0 53 35 25 be 09 69 82 be 94 0b 0b 3e a7 34 74 3e
       -0.16133623 -0.2547076 0.13578635 0.2384821
0001d0 1d 85 13 3d cd 08 1c be 6d e7 8c 3d 1a 40 8b 3e
       0.03601562 -0.15237732 0.068800785 0.27197343
0001e0 74 74 aa 3d b3 fb 07 be e5 8d 7f be c8 45 6e be
       0.08322993 -0.1327961 -0.24956472 -0.23268807
0001f0 48 de 1c 3e 2e 67 72 3e 1a ad 5d be 1d f6 c9 bd
       0.15319169 0.23672172 -0.21648064 -0.098613955
000200 a2 1c 01 3d 7e 2c 6d be ac e4 18 3d c1 38 c0 bd
       0.031521447 -0.23161504 0.037327453 -0.09385825
000210 47 47 14 3e 0e f1 79 be 78 3e c0 3c be 55 81 be
       0.14480315 -0.24408361 0.023467287 -0.2526073
000220 3a cc 2a 3e 66 63 96 bd 0d 98 a3 3d 0b e8 19 bc
       0.16679469 -0.073431775 0.07987986 -0.009393702
000230 2d 3c 67 3d ca b3 31 3e 1c f0 61 3d 8f cb 88 3e
       0.056453872 0.1735374 0.055160627 0.26717803
000240 66 be 30 be 3b 2d 80 bd 1a d4 24 bd 02 f4 b8 3d
       -0.17260131 -0.06258627 -0.04024134 0.09030916
000250 fa 20 42 be 95 cc 59 bd 66 7f 7f 3e 4a 64 7e 3e
       -0.18957892 -0.05317362 0.24950942 0.24842945
000260 e8 e4 5f bd a9 43 57 be 65 0c 0e 3e 4a 03 bd bc
       -0.05466166 -0.21021904 0.13871916 -0.023072857
000270 78 13 5b be 53 6b 82 3e e3 39 ad bd 83 1d 6e 3e
       -0.21394145 0.25472507 -0.08458307 0.23253445
000280 89 3a ad 3d bf 56 08 3e 4a 8b 33 be 4a ba 2a be
       0.0845843 0.13314341 -0.17533603 -0.16672626
000290 42 70 96 3d 99 65 d3 3d 60 26 61 3e aa 50 1b 3e
       0.0734563 0.103221126 0.21987295 0.1516749
0002a0 a1 f2 85 bd d0 9e 5d bd c9 3b 88 3e 89 4d b9 bd
       -0.065404184 -0.054106534 0.26608112 -0.09047992
0002b0 d6 f9 4d 3e 07 bd 09 be 74 f8 a4 bd b3 e1 93 3d
       0.20114836 -0.13451014 -0.08055201 0.07220783
0002c0 dd 23 c0 3c 80 4e 85 be 66 03 1d be d7 50 22 be
       0.023454601 -0.26036453 -0.15333328 -0.1585115
0002d0 c0 f6 74 bc f3 5d 06 3e bb e5 8d bd 2b d4 d9 3d
       -0.014951408 0.13121776 -0.06928583 0.10636171
0002e0 62 40 77 3e ef cd 37 3e ec ca 31 bd 1b 73 d0 3d
       0.24145654 0.17949651 -0.043406412 0.101782046
0002f0 96 ed bf 3d 5e 17 29 3e 83 9d a9 bd 9d 21 dd bd
       0.09371488 0.1651282 -0.08281996 -0.10797427
000300 93 a2 ba 3d e8 b7 2a 3e 04 45 14 be a4 7c 07 3c
       0.0911304 0.16671717 -0.14479452 0.008269463
000310 f8 7d bd bc cf db b6 3d 83 6a 05 be f1 f3 4d bd
       -0.023131356 0.08928644 -0.13028912 -0.05028147
000320 18 47 16 be 3d fd 41 be f8 52 6d bb 9e a1 aa 3c
       -0.14675558 -0.18944259 -0.0036212783 0.020829018
000330 73 25 49 3e 20 10 aa bd 52 fe 16 be 00 18 09 be
       0.19643192 -0.08303857 -0.14745453 -0.13388062
000340 fe 25 82 3e a8 98 fb bc 35 58 b4 3d 62 46 6f 3e
       0.2541961 -0.03071244 0.08805887 0.23366693
000350 f0 7c 85 3e e1 ec 5e be b1 75 df bd 58 68 63 3e
       0.26071882 -0.2177005 -0.1091112 0.22207773
000360 3c 72 d2 bd 69 ce 46 bd c2 41 97 3d 41 50 6e bd
       -0.10275695 -0.04853669 0.07385589 -0.058182005
000370 92 da 17 3e 44 00 f3 bd 9e fe c0 3d 8e f6 16 3d
       0.14829472 -0.11865285 0.094235644 0.036856227
000380 1c c4 47 be ec 68 ad 3b fb 8b da 3b a7 6e b9 3d
       -0.19508404 0.0052920487 0.006669519 0.090543084
000390 1d cc 25 3e e0 29 86 3e c1 fa 0e be 4b be 55 be
       0.16191144 0.26203823 -0.13962843 -0.20873372
0003a0 28 f9 13 bd 77 84 87 3c c7 24 7c be 23 d1 72 3e
       -0.036126286 0.016542656 -0.24623404 0.23712592
0003b0 b7 22 fa 3d 56 79 4b be c8 d9 7d 3c 17 bc 04 3e
       0.122136526 -0.19870505 0.015493818 0.12962376
0003c0 e7 ab 35 3e 42 94 88 3d 8f 14 85 3d 64 fe 58 be
       0.17741357 0.06668903 0.06498062 -0.21190792
0003d0 74 42 1d bc 10 71 47 bd 3a da 48 be ef a8 13 3c
       -0.009598363 -0.04869181 -0.19614497 0.009012445
0003e0 54 3c 00 3e 01 cb 4b 3e 1d a3 b9 bd ea 59 85 be
       0.12523013 0.19901659 -0.090643145 -0.2604516
0003f0 96 c5 88 bd 67 04 a0 3d b1 3f 74 be eb cc 4b 3e
       -0.066783115 0.0781334 -0.23852421 0.19902389

_module._mean_module._layers.0.linear.bias f4 [64]
000000 00 00 00 00 00 00 00 00 00 00 00 00 00 00 00 00
       0.0 0.0 0.0 0.0
000010 00 00 00 00 00 00 00 00 00 00 00 00 00 00 00 00
       0.0 0.0 0.0 0.0
000020 00 00 00 00 00 00 00 00 00 00 00 00 00 00 00 00
       0.0 0.0 0.0 0.0
000030 00 00 00 00 00 00 00 00 00 00 00 00 00 00 00 00
       0.0 0.0 0.0 0.0
000040 00 00 00 00 00 00 00 00 00 00 00 00 00 00 00 00
       0.0 0.0 0.0 0.0
000050 00 00 00 00 00 00 00 00 00 00 00 00 00 00 00 00
       0.0 0.0 0.0 0.0
000060 00 00 00 00 00 00 00 00 00 00 00 00 00 00 00 00
       0.0 0.0 0.0 0.0
000070 00 00 00 00 00 00 00 00 00 00 00 00 00 00 00 00
       0.0 0.0 0.0 0.0
000080 00 00 00 00 00 00 00 00 00 00 00 00 00 00 00 00
       0.0 0.0 0.0 0.0
000090 00 00 00 00 00 00 00 00 00 00 00 00 00 00 00 00
       0.0 0.0 0.0 0.0
0000a0 00 00 00 00 00 00 00 00 00 00 00 00 00 00 00 00
       0.0 0.0 0.0 0.0
0000b0 00 00 00 00 00 00 00 00 00 00 00 00 00 00 00 00
       0.0 0.0 0.0 0.0
0000c0 00 00 00 00 00 00 00 00 00 00 00 00 00 00 00 00
       0.0 0.0 0.0 0.0
0000d0 00 00 00 00 00 00 00 00 00 00 00 00 00 00 00 00
       0.0 0.0 0.0 0.0
0000e0 00 00 00 00 00 00 00 00 00 00 00 00 00 00 00 00
       0.0 0.0 0.0 0.0
0000f0 00 00 00 00 00 00 00 00 00 00 00 00 00 00 00 00
       0.0 0.0 0.0 0.0

_module._mean_module._layers.1.linear.weight f4 [64, 64]
000000 68 41 14 be 4d ae 05 3e 9a dc 3c bd 71 cf 15 be
       -0.14478076 0.13054772 -0.04610882 -0.14629914
000010 0f 2b b3 bd e7 25 5c bc ef e8 34 be bc 4d bc 3d
       -0.08748447 -0.013436771 -0.17666982 0.09194514
000020 08 f8 bf bd 55 c3 25 be 75 48 fa bc ba 55 bb 3c
       -0.0937348 -0.16187795 -0.030552128 0.022868026
000030 07 24 31 3e 82 c0 e3 bd 0e 44 e5 3b f6 33 46 be
       0.172989 -0.11120702 0.006996638 -0.19355759
000040 c1 c9 28 3e 09 82 29 3e ff 66 1d 3e 35 a4 91 bd
       0.16483213 0.1655351 0.15371321 -0.07111398
000050 eb 53 1d 3d c9 71 89 3d 86 52 23 3e 2f 6d 2e 3e
       0.03841011 0.06711156 0.15949449 0.17033838
000060 7a a5 f3 bc f8 44 fb 3d 37 25 be bd 04 12 35 3e
       -0.029741991 0.12269014 -0.09284442 0.17682654
000070 d7 9c ce bd 4e 65 cb 3d f0 fa 07 be 9b 8f a2 3d
       -0.100885086 0.09931432 -0.13279319 0.07937547
000080 02 2f 23 3d 87 38 0e 3e 25 20 00 3e 26 ff 07 be
       0.039839752 0.13888751 0.12512262 -0.13280925
000090 24 6c 9d bd e5 81 31 bd cc 1a 2d 3e a0 a6 0f 3e
       -0.07686642 -0.043336768 0.16904753 0.14028406
0000a0 15 3b f4 bd eb 5d 5a 3e 74 3d 4b bd a4 5f 09 3e
       -0.119253315 0.2132489 -0.049619153 0.1341539
0000b0 0f 8e d5 bd 93 d7 79 3d a8 c3 56 3e 67 03 9a bd
       -0.10427486 0.060996603 0.20973074 -0.0752018
0000c0 ed a3 e2 bd d8 c5 d1 bd a3 a2 87 bc 5b e9 ec bd
       -0.110664226 -0.10242814 -0.016557043 -0.115679465
0000d0 b7 43 47 3e 3b d2 02 bd 07 01 16 be df 70 4d be
       0.19459425 -0.031938773 -0.1464883 -0.20062588
0000e0 b6 da 1a 3e e1 48 6e bc 61 a9 da 3d 0a e9 81 bd
       0.15122494 -0.014543743 0.10676838 -0.06343277
0000f0 0e 44 62 bd a1 8b 33 be b8 fb a9 bd 66 98 6d bd
       -0.055240683 -0.17533733 -0.08299965 -0.058006667
000100 db 0d 09 be e1 84 4a 3e 5f 90 ab bd a8 07 54 3e
       -0.13384192 0.19777252 -0.08377146 0.20706046
000110 96 e4 1b bd e3 19 bd 3d e3 b0 8c 3d eb 2a 2d 3d
       -0.038059793 0.09233453 0.06869676 0.042277258
000120 f0 38 20 3d 68 78 32 be be 3d b5 bb 07 54 18 be
       0.0391168 -0.17428744 -0.005531042 -0.14875804
000130 ad 86 a2 3c dd dc 45 3e 0c 3d f7 bd 09 01 c9 3d
       0.019839609 0.19322534 -0.12072191 0.098146506
000140 c3 fd 50 be 72 4b 15 3e 02 bc 28 3e c9 b1 05 be
       -0.20409302 0.14579561 0.1647797 -0.13056101
000150 51 0a c6 bc 27 c8 58 3e f7 67 34 be 8a ed ac 3d
       -0.024174841 0.21170102 -0.17617784 0.084437445
000160 66 58 10 be 81 19 1c 3e f7 4f c6 3d 6b 27 04 3e
       -0.14096221 0.15244104 0.09683221 0.12905662
000170 e7 0a 86 bc 67 7e 59 3e 87 dc 02 be 88 c5 1d 3e
       -0.01636262 0.21239625 -0.12779437 0.15407383
000180 29 25 5b be 03 99 13 bd c2 4a 32 3d 52 72 cb 3d
       -0.21400894 -0.036034595 0.043528326 0.09933914
000190 c2 89 9f 3c 93 40 1d 3e 6f ed 34 3e a1 d3 27 3d
       0.019474868 0.15356664 0.17668699 0.04097331
0001a0 d6 ef 52 3e 36 20 9a 3d 3f 9d e8 bd 00 72 f3 bd
       0.20599303 0.07525675 -0.11358117 -0.11886978
0001b0 c7 fd 36 3e 26 71 d1 3d 72 8d 8e bc c3 75 03 3e
       0.17870246 0.102266595 -0.01740143 0.12837891
0001c0 a3 d5 19 ba ad 47 b5 3d 72 5f f2 3d 02 10 fb bd
       -0.0005868321 0.08851562 0.11834611 -0.122589126
0001d0 41 ad 4a 3e 99 41 44 3e bb e0 a0 3d 7f 10 1e be
       0.19792654 0.19165649 0.07855364 -0.1543598
0001e0 d1 7e 1c be 59 6f 0e be d4 5f d1 3c 69 84 df bc
       -0.15282752 -0.13909663 0.02555839 -0.027284818
0001f0 1c a5 33 3e 02 32 5e 3d 07 21 81 bd fc e9 52 3e
       0.17543453 0.05424691 -0.063051276 0.2059707
000200 a2 37 55 bd 1d 7b 0f 3d 0a 6a 57 be 49 c7 0e be
       -0.05205501 0.03502952 -0.21036544 -0.13943209
000210 54 03 fb bd 9a 03 03 3e cf d8 4b be 99 ba 2d be
       -0.12256494 0.12794343 -0.19906925 -0.16965713
000220 bb c9 bd bd f9 ae 5a be eb 8b 11 3e 7e 90 5b be
       -0.09266993 -0.2135581 0.1421353 -0.21441838
000230 96 1e 54 3e 13 85 25 be 0d 4c 94 bd 2a 1a 2b be
       0.20714793 -0.16164045 -0.07241068 -0.167092
000240 c4 6e 06 3c 76 07 3a 3e 48 89 62 bc d3 66 0f be
       0.0082051195 0.18166909 -0.013826676 -0.14004068
000250 ae c5 51 3e 24 58 68 3d 06 db 40 3c 93 33 b9 3d
       0.20485565 0.056724682 0.011770969 0.0904304
000260 62 a8 0f 3e 30 df f0 3d af af 14 be 03 35 bc bd
       0.14029077 0.1176132 -0.14520143 -0.09189799
000270 9d 6f 18 be 68 34 42 be d6 40 05 be 99 b4 c3 3d
       -0.14886327 -0.18965304 -0.13013014 0.09555931
000280 dc 55 ae bc 0d d5 d9 bd 5b 47 25 3e e6 ed 46 3e
       -0.021281175 -0.10636339 0.16140501 0.19426689
000290 b9 fc 97 3d 00 b7 ee 3d 0f 5e 07 bd 16 3e 14 be
       0.0742125 0.11655998 -0.033048686 -0.14476809
0002a0 6a 6e bc 3d de 77 74 3c c6 81 e5 bd 63 8c 98 3c
       0.09200747 0.014921157 -0.11206393 0.01862163
0002b0 a3 3c f9 bc 0f 14 9c 3d d9 52 f5 bd ed ec 07 3d
       -0.030424422 0.076210134 -0.119786926 0.033184934
0002c0 3b a0 14 3e cc ee 06 3e 4d af 91 bd 3f 02 16 bd
       0.14514248 0.13177031 -0.07113514 -0.036623236
0002d0 97 56 27 be 8c 54 0b be 3b 82 fe bc e7 5e 4b be
       -0.16341625 -0.13606471 -0.031067958 -0.19860421
0002e0 30 4a ac 3c 1f 25 3e 3c 80 6f 24 3e fb e2 e4 bd
       0.02103147 0.01160553 0.16058159 -0.111761056
0002f0 f8 df 27 bd 0f 39 01 bd f5 ff 1a 3d 09 61 52 3c
       -0.040985078 -0.031548556 0.037841756 0.012840518
000300 d5 f0 37 3d 93 de ea bc 33 eb 5b bd 72 06 5c be
       0.04490741 -0.028670585 -0.0536911 -0.21486834
000310 19 27 5d 3e 66 20 c3 bc f7 bc 4d be 86 0b ce 3d
       0.21596946 -0.02381916 -0.20091616 0.10060792
000320 ee 32 0e be 3c a0 12 be 1e f4 6d 3c 8f c4 06 bd
       -0.13886616 -0.14318937 0.014523534 -0.032902297
000330 4a 9f 6b bd 44 69 3b 3c 86 48 39 be a2 1d 0d 3e
       -0.057524957 0.0114386715 -0.18094072 0.13780835
000340 4f 6c 07 3e 39 30 4c 3e cf 67 72 3d b3 a9 08 be
       0.1322491 0.1994027 0.05918103 -0.13345985
000350 1f 1f 93 bc 6b a6 92 bd 63 4e ba 3d e2 eb 4e 3e
       -0.017959176 -0.07160648 0.09096982 0.2020717
000360 c7 a6 2b 3c 1b 2c 1e 3e 12 09 92 3c 93 9b 23 be
       0.010476775 0.15446512 0.01782659 -0.15977316
000370 d1 06 bf bd d8 3b c6 bc 24 bd 26 3e 88 c2 5a bd
       -0.09327472 -0.024198458 0.16283089 -0.053408176
000380 1d 08 a5 bd 97 26 d1 3d 21 86 a1 bd 49 5a 7e 3d
       -0.08058188 0.102124386 -0.07886911 0.06209782
000390 bf ed 19 3e 21 e4 15 be 66 59 02 3e c8 2e 36 be
       0.15032099 -0.14637806 0.12729415 -0.17791283
0003a0 88 37 16 3c 1c d1 24 3d 7a 44 bc 3c c6 0f a0 3c
       0.009168513 0.040238485 0.02298187 0.019538771
0003b0 ca 41 8e bd 9d fc 11 be 04 20 4a 3e c8 67 f5 3d
       -0.06946142 -0.1425652 0.19738775 0.11982685
0003c0 7e a2 32 3e 20 3b 58 be eb 7b db 3d 78 3f 95 bc
       0.17444798 -0.21116304 0.10716995 -0.01821874
0003d0 e7 df 98 3d e8 13 da 3d 7e 30 5b bd 0a ca 3d be
       0.07464581 0.10648328 -0.053513043 -0.18534103
0003e0 c2 69 86 bd cd d0 95 3a 97 5d 4a be 0f ea 38 be
       -0.065631405 0.0011430025 -0.19762264 -0.18058036
0003f0 da 1d 51 be 11 86 bc bd 07 39 d3 3d 35 40 45 3d
       -0.20421544 -0.09205259 0.103136115 0.048156936

_module._mean_module._layers.1.linear.bias f4 [64]
000000 00 00 00 00 00 00 00 00 00 00 00 00 00 00 00 00
       0.0 0.0 0.0 0.0
000010 00 00 00 00 00 00 00 00 00 00 00 00 00 00 00 00
       0.0 0.0 0.0 0.0
000020 00 00 00 00 00 00 00 00 00 00 00 00 00 00 00 00
       0.0 0.0 0.0 0.0
000030 00 00 00 00 00 00 00 00 00 00 00 00 00 00 00 00
       0.0 0.0 0.0 0.0
000040 00 00 00 00 00 00 00 00 00 00 00 00 00 00 00 00
       0.0 0.0 0.0 0.0
000050 00 00 00 00 00 00 00 00 00 00 00 00 00 00 00 00
       0.0 0.0 0.0 0.0
000060 00 00 00 00 00 00 00 00 00 00 00 00 00 00 00 00
       0.0 0.0 0.0 0.0
000070 00 00 00 00 00 00 00 00 00 00 00 00 00 00 00 00
       0.0 0.0 0.0 0.0
000080 00 00 00 00 00 00 00 00 00 00 00 00 00 00 00 00
       0.0 0.0 0.0 0.0
000090 00 00 00 00 00 00 00 00 00 00 00 00 00 00 00 00
       0.0 0.0 0.0 0.0
0000a0 00 00 00 00 00 00 00 00 00 00 00 00 00 00 00 00
       0.0 0.0 0.0 0.0
0000b0 00 00 00 00 00 00 00 00 00 00 00 00 00 00 00 00
       0.0 0.0 0.0 0.0
0000c0 00 00 00 00 00 00 00 00 00 00 00 00 00 00 00 00
       0.0 0.0 0.0 0.0
0000d0 00 00 00 00 00 00 00 00 00 00 00 00 00 00 00 00
       0.0 0.0 0.0 0.0
0000e0 00 00 00 00 00 00 00 00 00 00 00 00 00 00 00 00
       0.0 0.0 0.0 0.0
0000f0 00 00 00 00 00 00 00 00 00 00 00 00 00 00 00 00
       0.0 0.0 0.0 0.0

_module._mean_module._output_layers.0.linear.weight f4 [6, 64]
000000 87 f2 93 be a9 4b 3d 3d ce 2c 8a bd e3 84 c6 3d
       -0.2889597 0.046214733 -0.06746827 0.09693315
000010 ad cc 81 be 45 7f 49 be 6f 5c 82 3e 2e c3 0e be
       -0.25351468 -0.19677456 0.25461146 -0.13941643
000020 bf c0 8c bd 88 31 28 3e ff 28 ba 3d 56 d2 48 3e
       -0.06872701 0.16425145 0.09089851 0.19611487
000030 f1 0c d0 3c 04 56 d5 bd 6e 70 ee bc 8c 73 02 bc
       0.025396796 -0.10416797 -0.029106345 -0.007962119
000040 c6 e5 64 3d d1 e1 b3 3d 26 7e 99 bd 5f e7 1c 3e
       0.05588319 0.087833054 -0.07494764 0.15322636
000050 7c 03 40 be cf 98 97 bd 42 1a 11 bd 7f 1d 9b bd
       -0.18751329 -0.07402193 -0.035425432 -0.07573985
000060 ee c0 74 3e 76 05 22 be 69 2c 2d 3b d1 d5 05 3e
       0.23901722 -0.15822396 0.0026424176 0.13069846
000070 45 5b 8b 3e cb f5 84 3d 7f 97 8b be e9 d6 81 be
       0.2721807 0.06492194 -0.2726402 -0.25359276
000080 23 88 17 be bd 60 67 3e c8 a1 43 be e8 d4 36 3e
       -0.14798026 0.22595496 -0.19104683 0.17854655
000090 ff c0 e6 bd 6d 3c 69 be 68 1f c2 bd f8 57 8b 3e
       -0.1126728 -0.22776957 -0.094786465 0.27215552
0000a0 93 46 b3 bd f7 e2 5c be 54 8d 81 be 25 fe 91 be
       -0.08753695 -0.21570955 -0.25303137 -0.2851421
0000b0 09 f9 bd 3d 1b 9b 13 3e 92 98 85 bd 41 db 46 bd
       0.09276015 0.14414637 -0.06523241 -0.04854894
0000c0 27 c1 b3 bd 5f 00 f2 bd cf e0 2f bc 00 42 55 3b
       -0.08777075 -0.11816477 -0.010734751 0.003254056
0000d0 70 f1 ff 3d 45 e7 2d 3e 60 8b 40 3e 77 ad bb 3d
       0.124972224 0.16982754 0.18803167 0.09163945
0000e0 41 a9 3f be 69 9c e7 3d a4 18 8e bd 4b cf 81 3e
       -0.18716909 0.1130913 -0.069382936 0.25353464
0000f0 94 0f d0 3c d2 44 26 3e d4 ab 12 bd 8e 27 87 be
       0.025398053 0.1623719 -0.0358084 -0.26397365
000100 a9 0c 57 bd 68 62 16 3e 55 8d 63 3d 67 e5 d1 3d
       -0.052502308 0.14685977 0.055554707 0.10248833
000110 33 6d e7 3d 7e d7 8f be 6f 2a 93 3e a0 d7 13 bd
       0.11300125 -0.28094095 0.28743312 -0.036094308
000120 60 ff 4c be 27 c5 21 3e fb a8 51 bd d3 81 3c be
       -0.20019293 0.15797864 -0.051186543 -0.18408899
000130 42 8e b0 3d d0 dc 3c 3d e0 e9 d8 bd 9f be 80 3e
       0.086208835 0.04610902 -0.10591483 0.25145432
000140 f7 1b e6 3d 95 5e 51 bd 46 16 5c 3e da 9f 8f 3d
       0.112358026 -0.05111559 0.21492872 0.07012911
000150 93 9d 26 be d9 05 18 3d 89 55 16 be 26 45 06 3e
       -0.16271047 0.03711495 -0.14681067 0.13112316
000160 73 3f 38 be 9f 86 a1 bd 26 b8 72 be 37 28 4a 3e
       -0.17992954 -0.07887005 -0.2370306 0.19741903
000170 69 03 2d 3e 3b 01 f4 3d 5e 21 1d be 2d b2 2a 3e
       0.16895832 0.11914297 -0.1534476 0.16669531
000180 3c 56 7e be 44 1d 54 be a8 bd 49 bc 9a 04 88 3d
       -0.24837583 -0.20714289 -0.012313284 0.06641503
000190 a3 b4 36 3e 7e 38 93 be 8e 82 69 bd 2c 42 45 be
       0.17842345 -0.28754038 -0.057009272 -0.19263524
0001a0 52 c0 26 bd 48 21 ed 3b ca 86 5a 3c 11 79 82 be
       -0.040710755 0.0072366334 0.0133378 -0.2548299
0001b0 e2 b2 a3 3c 1d 94 31 be c9 fb 79 be 4b 64 8a 3e
       0.019982759 -0.17341657 -0.24412455 0.27029642
0001c0 27 7c b7 3d 7e a6 b5 bd b0 1a 30 3e da a2 39 3e
       0.08959227 -0.088696465 0.1719768 0.18128529
0001d0 b2 10 2d be 0e 6b 12 bd e7 c7 59 bc c2 52 7a 3e
       -0.169009 -0.035746627 -0.013292289 0.24445632
0001e0 53 4c 77 3e d4 9d 50 bd 81 81 49 3e b1 ef 65 be
       0.24150209 -0.050931767 0.19678308 -0.22454716
0001f0 22 07 57 be 42 6e 08 3d 68 3a 2b 3c e5 f3 13 3e
       -0.20998815 0.033308275 0.010450937 0.14448507
000200 ab 85 24 be f7 b1 8f 3e 27 b7 59 be 4d 8b 82 be
       -0.16066615 0.28065464 -0.21261273 -0.25496903
000210 8f 44 84 be 08 1b ec bd 76 e1 aa bd 70 49 dc 3c
       -0.25833556 -0.11528593 -0.083437845 0.026890486
000220 2b b1 5a be ce 60 21 be a4 fa 94 3c 46 df 26 3e
       -0.21356647 -0.15759584 0.018185921 0.1629611
000230 6b 21 81 be 65 69 6d be 54 d6 15 3d fc e6 21 be
       -0.25220808 -0.23184736 0.036581352 -0.1581077
000240 ff 7e 57 be f6 f0 0a be 15 61 85 3e c2 85 20 3e
       -0.21044539 -0.13568482 0.2605063 0.15676025
000250 49 4b ba 3c 38 0d 49 3e fb 25 72 be 9a 71 4b 3e
       0.022740977 0.19633949 -0.23647301 0.19867554
000260 71 51 4d bc f9 31 09 bd 4d a3 91 be 12 40 33 be
       -0.012531624 -0.033494923 -0.284449 -0.1750491
000270 ef 85 10 3b 45 1c 2c be 16 fc 86 3d 4f ec 83 be
       0.0022052487 -0.16807659 0.0659105 -0.25766227
000280 81 e0 67 3e 15 0a 93 be 63 e4 22 3e 73 23 74 3d
       0.22644235 -0.2871863 0.15907435 0.05960412
000290 b1 16 1b 3e a0 d1 1f bd ee 9a 91 be c6 2c 56 3e
       0.15145375 -0.039018273 -0.28438514 0.20915517
0002a0 ad 4a 01 bc ce 03 d7 bd a9 86 7f 3e 3f d7 64 3d
       -0.007891339 -0.104987726 0.24953713 0.055869337
0002b0 aa 72 84 3e a6 00 30 bd 35 a6 d6 3d 06 25 4d 3e
       0.25868732 -0.04296937 0.1048092 0.20033655
0002c0 f3 06 63 3b 2b 61 d2 bc 7b e9 4b be 41 df 22 3e
       0.0034641593 -0.025681099 -0.19913284 0.15905477
0002d0 17 7b 2b be 44 bf 8e 3e c9 dc a7 3d 97 33 50 3e
       -0.16746174 0.278803 0.08196408 0.2033218
0002e0 f9 08 47 be 7c c3 7d 3e 77 6b 31 3e 32 39 f7 3d
       -0.19437017 0.24781603 0.17326151 0.12071456
0002f0 c0 cc eb bd 76 f3 dc 3d 5b 8e 61 be 2f 36 04 3e
       -0.11513662 0.10788624 -0.2202696 0.12911294
000300 9e fa 8a 3e d9 c1 65 3e c9 f2 87 be 90 f6 75 3e
       0.2714433 0.22437228 -0.26552418 0.24019837
000310 08 d6 2b be 0e c2 81 3c 33 31 82 3e 75 e8 c1 3d
       -0.16780865 0.015839603 0.2542816 0.09468166
000320 d5 d7 83 3e 1c cd 6f 3e 06 82 6f be c0 f9 41 be
       0.25750604 0.23418087 -0.23389444 -0.18942928
000330 b0 ba 8c 3e fd b5 6e 3e d1 a2 84 be f1 af 84 be
       0.2748618 0.2331161 -0.2590547 -0.25915483
000340 ec d3 ff 3c f2 6b 68 be 1e e0 91 bd 38 dd 82 be
       0.031228982 -0.22697428 -0.07122825 -0.25559402
000350 2c 66 ed 3d e5 8a 05 3e ae 3d 45 3e 61 eb 14 3e
       0.11591753 0.13041265 0.1926181 0.14542915
000360 3f cc f8 3d 40 a4 56 bb ff 3e 94 be 10 71 39 be
       0.12148332 -0.003275171 -0.28954312 -0.18109536
000370 0d 57 40 3d 9b 19 6e be 0b 78 50 be af 35 3f bd
       0.046958018 -0.23251955 -0.20358293 -0.046682056
000380 38 83 0d 3c d3 a6 81 bd cf 55 86 be 9c 92 ec 3d
       0.008637242 -0.06330647 -0.26237342 0.11551401
000390 9f 1e 3f be 33 ba df bd b8 06 f6 3d 98 04 2d 3e
       -0.18664025 -0.109241866 0.12013 0.16896284
0003a0 fa aa 29 be 68 72 ca 3d d9 d1 76 be 97 f1 93 3e
       -0.16569129 0.098851025 -0.24103488 0.28895256
0003b0 b1 0d d0 3d 0a ce 00 3e 5e 94 3d 3e 15 54 7e be
       0.101588614 0.12578598 0.18513629 -0.24836762
0003c0 70 87 e3 bd f8 1a 48 be 94 5f 27 be 65 d7 4d 3e
       -0.11109817 -0.19541538 -0.16345054 0.20101698
0003d0 37 dc 94 be de 4b 07 ba 71 7e 9f 3c ac 20 82 bd
       -0.2907426 -0.00051611464 0.019469472 -0.06353888
0003e0 c2 53 c4 3c c2 ac 7d 3e a9 49 23 be e3 fc e2 bd
       0.02396572 0.24772933 -0.15946068 -0.110833906
0003f0 71 03 94 3e c9 4e 82 3e c1 20 2b 3e e4 d3 8a be
       0.28908876 0.25450733 0.16711713 -0.27114785

_module._mean_module._output_layers.0.linear.bias f4 [6]
000000 00 00 00 00 00 00 00 00 00 00 00 00 00 00 00 00
       0.0 0.0 0.0 0.0
000010 00 00 00 00 00 00 00 00
       0.0 0.0
